saves/initialization/miniimagenet/con-pre.pth (torch_old, 474906 bytes, 26 tensors)

encoder.0.0.weight f4 [64, 3, 3, 3]
000000 72 c1 fc 39 6d c6 fa 39 fd 94 d7 39 96 cb f1 39
       0.00048209314 0.00047831555 0.00041119 0.00046118785
000010 3f 09 f7 39 be a8 da 39 b3 4d b7 39 77 ed bc 39
       0.000471184 0.00041705923 0.0003496237 0.0003603508
000020 7b e8 b4 39 54 dd aa 39 05 aa a9 39 0b 74 9f 39
       0.00034505487 0.0003258983 0.00032360866 0.00030413302
000030 53 4d 9d 39 05 a8 9a 39 7a 6a 99 39 06 f8 84 39
       0.00030002985 0.00029498353 0.00029261765 0.00025361794
000040 b5 02 83 39 0c c7 8b 39 aa d9 5e 38 1b d7 76 38
       0.00024988284 0.00026660447 5.313164e-05 5.8851303e-05
000050 c6 17 ba 38 e3 65 d6 b7 01 67 fc b7 5b 4c df b6
       8.873599e-05 -2.5558233e-05 -3.0088706e-05 -6.654807e-06
000060 38 60 d7 b8 90 78 09 b9 b9 51 e8 b8 29 03 00 80
       -0.00010269921 -0.00013110251 -0.00011077844 -1.134e-42
000070 40 18 00 80 87 39 00 00 6e 30 00 00 9a 39 00 00
       -8.699e-42 2.0637e-41 1.7373e-41 2.0664e-41
000080 4b 3e 00 00 63 1b 00 00 08 2e 00 00 fc 02 00 80
       2.2347e-41 9.825e-42 1.6513e-41 -1.07e-42
000090 0c 32 00 80 57 31 00 00 6b 02 00 80 89 26 00 00
       -1.7953e-41 1.77e-41 -8.67e-43 1.3824e-41
0000a0 4d 13 00 00 9c 0e 00 80 15 11 00 80 3e 00 00 00
       6.924e-42 -5.241e-42 -6.128e-42 8.7e-44
0000b0 1f 08 00 80 b7 1e 00 80 43 10 00 00 0d 38 00 80
       -2.913e-42 -1.1018e-41 5.834e-42 -2.0107e-41
0000c0 0e 0c 00 80 2b 42 00 00 6e 1c 00 80 ff 27 00 80
       -4.324e-42 2.3737e-41 -1.0199e-41 -1.4348e-41
0000d0 23 19 00 00 d4 39 00 00 d0 a6 1e ba e8 cf 0f ba
       9.017e-42 2.0745e-41 -0.00060520787 -0.00054859975
0000e0 bd b2 f3 b9 94 c3 19 ba 0e 20 10 ba 5b 98 ed b9
       -0.00046481742 -0.000586563 -0.00054979406 -0.00045317676
0000f0 90 bf c4 b9 c9 7f bb b9 3c 91 7d b9 69 a3 e7 b9
       -0.00037526758 -0.00035762627 -0.00024182064 -0.00044181503
000100 10 c2 d7 b9 f0 b3 86 b9 27 7a f7 b9 87 cb f2 b9
       -0.00041152583 -0.00025692536 -0.00047202522 -0.00046309477
000110 cf d8 97 b9 16 19 8f b9 28 8d 91 b9 fa 7a b5 b8
       -0.000289625 -0.00027293776 -0.00027761725 -8.653659e-05
000120 c1 46 f9 b8 1b 70 38 b8 67 d2 ff 38 c8 90 fc b8
       -0.00011886424 -4.3973425e-05 0.00012198538 -0.00012043264
000130 13 a9 90 b8 d9 3b fd 38 98 80 55 38 32 0c d4 38
       -6.8979476e-05 0.000120751276 5.090292e-05 0.00010111219
000140 bd 19 93 39 75 2a 00 80 3f 3f 00 80 a7 0d 00 80
       0.000280572 -1.5231e-41 -2.2688e-41 -4.898e-42
000150 88 2c 00 00 ef 0d 00 80 d5 34 00 80 d2 46 00 00
       1.5975e-41 -4.998e-42 -1.8953e-41 2.5406e-41
000160 5f 19 00 00 64 0d 00 00 b7 24 00 00 8e 33 00 80
       9.101e-42 4.804e-42 1.3171e-41 -1.8494e-41
000170 7c 34 00 00 f1 0b 00 80 b0 0f 00 00 29 11 00 00
       1.8828e-41 -4.284e-42 5.628e-42 6.156e-42
000180 a8 34 00 80 4a 24 00 80 8c 0a 00 80 7e 04 00 80
       -1.889e-41 -1.3018e-41 -3.784e-42 -1.611e-42
000190 12 09 00 80 59 06 00 00 24 3e 00 80 8f 3b 00 00
       -3.254e-42 2.277e-42 -2.2292e-41 2.1366e-41
0001a0 05 19 00 80 31 06 00 80 b1 12 00 00 b8 2a 00 00
       -8.975e-42 -2.221e-42 6.705e-42 1.5325e-41
0001b0 81 2b 7d 3e b4 12 ab 3e 61 a6 ca 3d 48 a4 be 3d
       0.24723627 0.33412707 0.098950155 0.09308678
0001c0 45 dd 1a 3d f6 65 68 3e 0b e1 34 bd cd bc 6b bc
       0.037808675 0.22695145 -0.04415993 -0.014388275
0001d0 eb cf 87 bc bb d1 a2 be c7 6b c4 be 02 96 c6 bd
       -0.016578635 -0.31800637 -0.38363478 -0.096965805
0001e0 40 ae 53 be ee 2c ab be 41 52 1a be e7 f1 07 3e
       -0.2067194 -0.33432716 -0.1507044 0.13275872
0001f0 b2 be 92 bd 26 05 cb 3a 89 10 ab bc 3a d7 0c be
       -0.071652785 0.0015489205 -0.020881908 -0.13753977
000200 b9 0d 63 3e 7a 7c c0 3d 1a 41 0c be 0f 2f 89 3d
       0.22173204 0.09398742 -0.1369671 0.06698429
000210 a3 08 72 3e ba 1e ce bd 97 06 6f 3e 86 9c 0a 3e
       0.23636107 -0.100644544 0.23342358 0.13536271
000220 84 95 70 bc 8e dd 28 be dd b6 9d 3e cc 95 9f ba
       -0.014684085 -0.16490766 0.30803576 -0.001217538
000230 a4 a4 99 be af 80 48 3d 85 6b 30 3c 7d 28 55 bd
       -0.30008423 0.048950847 0.010767822 -0.052040566
000240 19 47 3e 3e 21 2d d8 bb d6 47 67 be 2b 8d b0 3e
       0.18581809 -0.0065971767 -0.22585997 0.34482703
000250 8b ca 0d 3d 26 33 9c be d4 93 16 3d 04 e1 87 bc
       0.03461699 -0.30507773 0.036762074 -0.016586788
000260 ca b4 86 bd 4c 68 db 3d 91 ab c8 3c 47 92 38 be
       -0.065774515 0.107132524 0.024495872 -0.1802455
000270 af c7 41 3e 59 21 6c 3d 07 a5 54 be de bc 22 bc
       0.1892383 0.05764899 -0.20766078 -0.009932725
000280 92 71 f5 3c cd 81 00 3c 5a af 0c ba ac 46 21 ba
       0.029961381 0.007843447 -0.00053667056 -0.00061521935
000290 29 74 3d ba 2a 5d 1c ba e4 6d 1c ba 71 04 39 ba
       -0.0007227087 -0.000596481 -0.0005967303 -0.0007057852
0002a0 a3 2c 05 ba 1d 30 ef b9 b4 c2 05 ba 04 e6 c4 b9
       -0.0005080199 -0.0004562148 -0.00051025604 -0.00037555408
0002b0 a0 ab cc b9 1e 95 01 ba ab e8 c3 b9 1c 5b ab b9
       -0.00039037783 -0.00049431797 -0.0003736665 -0.00032683543
0002c0 0b b1 f9 b9 af 25 9b b9 46 72 6f b9 0a 0f af b9
       -0.00047624888 -0.0002959198 -0.00022835386 -0.00033389806
0002d0 83 71 28 38 a1 72 a7 38 7a b5 66 b7 fe be 5d 39
       4.0160037e-05 7.984532e-05 -1.3751322e-05 0.00021147353
0002e0 ab ce 89 39 49 dd 13 39 e3 84 98 39 d0 17 ca 39
       0.00026284656 0.00014101448 0.00029090708 0.00038546184
0002f0 56 33 89 39 68 18 00 80 4c 2e 00 00 7c 2b 00 80
       0.00026168925 -8.755e-42 1.6608e-41 -1.5599e-41
000300 ee 2c 00 00 b7 1a 00 80 2a 22 00 80 23 42 00 00
       1.6118e-41 -9.583e-42 -1.2256e-41 2.3725e-41
000310 3f 2d 00 80 07 2d 00 00 e6 1c 00 80 02 04 00 80
       -1.6231e-41 1.6153e-41 -1.0367e-41 -1.438e-42
000320 aa 17 00 00 70 1a 00 00 74 3e 00 00 9f 31 00 00
       8.489e-42 9.484e-42 2.2404e-41 1.78e-41
000330 ad 35 00 00 79 3c 00 00 91 06 00 00 60 45 00 80
       1.9255e-41 2.1694e-41 2.356e-42 -2.4887e-41
000340 ed 2f 00 00 d0 45 00 00 ff 01 00 80 10 39 00 00
       1.7193e-41 2.5044e-41 -7.16e-43 2.047e-41
000350 57 3d 00 80 04 2d 00 00 b3 15 00 80 51 2c 00 80
       -2.2005e-41 1.6149e-41 -7.784e-42 -1.5898e-41
000360 5f 22 63 be ac 63 13 be aa 04 8f 3e da d8 c9 be
       -0.2218108 -0.1439349 0.27933246 -0.39423257
000370 e5 24 00 be 49 31 af 3e 53 41 2b bc 09 1b 4d 3c
       -0.12514074 0.3421729 -0.010452586 0.012518653
000380 9f b5 28 3e e6 f4 d5 3c cf 23 20 be 86 dc 57 be
       0.16475533 0.026117753 -0.1563866 -0.21080217
000390 fe 6a 27 3d e9 c8 73 3c 62 d6 b9 3d ee ce 65 bd
       0.04087352 0.014879444 0.090740934 -0.056105547
0003a0 63 86 69 3e 72 cf 2a 3e a6 0b f6 3e 22 ef e7 3d
       0.2280517 0.16680697 0.48055762 0.11324908
0003b0 3c b9 6c bd 5a 82 97 3e 59 00 97 bd 8f c2 b2 be
       -0.05779384 0.29591638 -0.07373113 -0.3491406
0003c0 74 a5 83 3d 77 d7 72 be b8 a2 96 be 49 25 11 3c
       0.06428042 -0.23715006 -0.2942102 0.008858987
0003d0 6c 91 0f 3e 14 61 39 3e 56 11 c3 3d 2c 13 2c 3e
       0.14020318 0.18103439 0.09524791 0.16804188
0003e0 de 0f c0 3d 66 42 1e be 59 b4 39 be b9 89 b9 be
       0.093780264 -0.15455016 -0.18135203 -0.36237887
0003f0 57 43 43 3d 4e 8a a2 39 f5 af 41 3e 00 66 61 3e
       0.047671642 0.00031002093 0.18914779 0.22011566

encoder.0.0.bias f4 [64]
000000 7a 40 4f 32 e2 7a b1 81 6f 0d f5 32 9a 39 00 80
       1.2063646e-08 -6.519586e-38 2.8527863e-08 -2.0664e-41
000010 f9 8e 87 36 dd 73 f4 37 36 16 55 32 2c 03 00 80
       4.0399577e-06 2.914102e-05 1.2403282e-08 -1.138e-42
000020 1e e8 6c b8 09 7a 9a b8 75 08 57 39 10 32 00 00
       -5.648296e-05 -7.366023e-05 0.00020507148 1.7959e-41
000030 61 cd 7d b8 50 01 13 b6 0b d1 61 b7 67 38 92 36
       -6.0511175e-05 -2.190547e-06 -1.3459717e-05 4.357705e-06
000040 c7 67 da 37 e1 3b 00 80 c5 ab 5b 36 28 4d f8 36
       2.603595e-05 -2.148e-41 3.2733526e-06 7.399958e-06
000050 8c b9 a1 b7 77 37 00 80 c8 40 00 80 09 9c f5 36
       -1.9279098e-05 -1.9897e-41 -2.3239e-41 7.319734e-06
000060 21 81 27 82 77 3e 00 80 44 f7 dd 36 46 dc 34 b8
       -1.230628e-37 -2.2408e-41 6.6150988e-06 -4.312049e-05
000070 17 08 83 37 bb df 5c 37 62 21 af 38 e7 a6 36 37
       1.5620184e-05 1.3165113e-05 8.350868e-05 1.0886905e-05
000080 51 a6 c6 b6 2f 94 8e 37 50 18 00 80 bb 89 0b 37
       -5.9202216e-06 1.6996722e-05 -8.722e-42 8.3171135e-06
000090 0e 82 87 b6 42 e3 76 37 90 46 00 00 13 4f c8 b7
       -4.038454e-06 1.4715655e-05 2.5313e-41 -2.387868e-05
0000a0 8d c4 90 b8 f3 13 00 00 cb 1c 2d 36 c2 02 8c b5
       -6.9030655e-05 7.156e-42 2.5795769e-06 -1.0431615e-06
0000b0 37 42 00 00 5d d4 20 b8 93 1f 00 80 4d cd 67 b2
       2.3753e-41 -3.834475e-05 -1.1327e-41 -1.349265e-08
0000c0 5a 60 7e 37 44 1c 8b b2 dc 27 00 00 3d 90 f7 37
       1.5162013e-05 -1.6194583e-08 1.4299e-41 2.951186e-05
0000d0 2f a2 be b5 f8 00 00 00 42 3a 5b b7 75 31 00 00
       -1.4203305e-06 3.48e-43 -1.3066981e-05 1.7742e-41
0000e0 e2 8b ca 37 89 42 00 80 6d 01 e0 37 08 19 00 00
       2.4145414e-05 -2.3868e-41 2.6703545e-05 8.98e-42
0000f0 22 40 00 80 90 6e ec b6 79 27 b3 b7 45 36 00 80
       -2.3007e-41 -7.0462193e-06 -2.1356844e-05 -1.9468e-41

encoder.0.1.weight f4 [64]
000000 1d 42 b8 b8 41 58 5f 00 8d ef 08 38 ff 01 00 00
       -8.786118e-05 8.756032e-39 3.2648026e-05 7.16e-43
000010 61 c3 72 3e c9 fe 20 3f 6b c7 f8 b8 17 1d 00 00
       0.23707344 0.6288877 -0.00011862706 1.0435e-41
000020 1c 40 b6 3e 36 3f 15 3f a8 a5 c7 3e e0 25 00 00
       0.35595787 0.5829958 0.38993573 1.3587e-41
000030 01 39 e1 3e 5b 8d 3a 3e 83 19 13 3f de 00 8a 3e
       0.43988803 0.18217985 0.574608 0.26953787
000040 96 5e 95 3e 63 24 00 00 4a b0 56 3e 0d ad f3 3e
       0.29173726 1.3053e-41 0.20965686 0.47592965
000050 0c df 84 3e 02 32 00 80 d6 1a 00 00 26 48 a6 3e
       0.2595142 -1.794e-41 9.627e-42 0.3247692
000060 2f dc 8d 00 3a 02 00 00 8d 9e 9c 3e ea a1 c2 3e
       1.3027792e-38 7.99e-43 0.30589715 0.38014156
000070 2e 54 a9 3e 16 9e 9d 3e db 21 b7 3e 5b b3 85 3e
       0.33072037 0.30784672 0.35768017 0.261134
000080 8e 60 a3 3e b9 62 f7 3d f5 2a 00 80 9c 69 8a 3e
       0.31909603 0.12079377 -1.541e-41 0.270337
000090 be 02 81 3e c0 d1 d8 3e d3 38 00 80 30 0c db 3e
       0.25197405 0.42347527 -2.0385e-41 0.42782736
0000a0 af 16 f9 3e 54 09 00 00 04 6f cb 3e 3d fa 19 3e
       0.4865012 3.346e-42 0.39733136 0.15036865
0000b0 39 2b 00 80 82 4f fe 3e 07 17 00 00 83 b2 0a 38
       -1.5505e-41 0.49670035 8.26e-42 3.3068016e-05
0000c0 6b 0b 14 3f f9 a3 92 38 fa 3a 00 00 bf ae 89 3e
       0.5782992 6.992365e-05 2.1157e-41 0.26891133
0000d0 e5 aa 0a 3f 6e 11 00 00 ec be a5 3e d7 1c 00 80
       0.54167014 6.253e-42 0.32372224 -1.0346e-41
0000e0 04 82 6e 3e 5f 58 b1 b8 60 4d d0 3e d7 43 00 00
       0.23291785 -8.456478e-05 0.40684032 2.4336e-41
0000f0 66 45 00 80 48 62 92 3e 85 a3 19 3f ea 22 00 00
       -2.4895e-41 0.28590608 0.60015136 1.2525e-41

encoder.0.1.bias f4 [64]
000000 df 0c 90 3b 23 83 32 3a bc 39 7b 3c 89 e5 25 91
       0.0043960656 0.0006809702 0.015333589 -1.3086936e-28
000010 b8 22 50 3d 28 fc 03 bf e6 31 52 3c 0b 3f 98 b3
       0.05081436 -0.51556635 0.0128292795 -7.089519e-08
000020 ee 73 3f 3e f0 52 4e 3d 77 1c ef 3a 99 4b e2 80
       0.18696567 0.050372064 0.0018242736 -2.0781941e-38
000030 12 bb 41 3c e7 a1 58 3c 46 17 28 3c 97 4a 9f 3d
       0.011824386 0.013222194 0.010259455 0.07777899
000040 dc be 7c 3e a7 e1 f3 ab 33 96 c0 bd 41 25 46 bb
       0.24682182 -1.732882e-12 -0.09403648 -0.0030234607
000050 ce bd c1 bd 8d 93 8f 83 ea f8 27 80 92 7f a0 be
       -0.094600305 -8.438661e-37 -3.670878e-39 -0.31347328
000060 81 bd 72 3a 97 71 c4 18 c9 ee 42 3e 79 a0 8c be
       0.00092598057 5.077951e-24 0.19036402 -0.2746618
000070 39 29 a9 be 69 e3 d4 be 87 5f fd bb 1a c3 59 3e
       -0.33039263 -0.4157975 -0.007732335 0.21265832
000080 f4 d6 e2 3d a9 fb 24 3c b0 b8 11 b6 ed bb 7c be
       0.11076155 0.010069766 -2.1714186e-06 -0.24681063
000090 96 59 bc be 5f 31 e9 bb 21 f7 95 b5 c9 be 7e 3d
       -0.367871 -0.007116481 -1.1173289e-06 0.062193666
0000a0 09 38 28 3e ab db 85 ab e0 73 6f 3e 4a 49 5d be
       0.16427626 -9.511188e-13 0.23384047 -0.21609989
0000b0 8d 51 ab 8e 26 23 dc be 70 38 f2 b6 52 bf b0 3a
       -4.2233285e-30 -0.42995566 -7.218732e-06 0.0013484752
0000c0 8f ac 4a 3d c4 62 09 3c 05 47 55 ad 7b f4 fa 3d
       0.04948097 0.008385364 -1.2123418e-11 0.12253662
0000d0 4a 15 1b bf 1e 1b 61 b8 06 51 14 bf 53 d3 92 82
       -0.6057936 -5.3669435e-05 -0.5793613 -2.1574066e-37
0000e0 2d ee 11 3d ac b9 71 b9 f7 8d 43 bb 64 cd c3 b5
       0.035627533 -0.00023052719 -0.0029839256 -1.4588409e-06
0000f0 40 19 2b b8 c6 c0 87 be f2 94 8f ba 64 6a 0f ae
       -4.0793093e-05 -0.26514262 -0.0010954423 -3.260893e-11

encoder.0.1.running_mean f4 [64]
000000 5c 6a a0 b9 b5 82 38 81 d6 0f b1 39 25 0d 00 00
       -0.00030596822 -3.388924e-38 0.0003377187 4.715e-42
000010 ee fa e6 bc 34 b3 14 3b 21 cf bc 39 f9 1e 00 00
       -0.028195824 0.0022689821 0.00036012477 1.1111e-41
000020 4e ed 86 3b 94 52 c3 3b 75 21 92 3a 88 13 00 80
       0.0041176444 0.005960772 0.0011148887 -7.006e-42
000030 7f 68 ef 3a fb a8 02 3b 2a 19 9b bb 50 f1 34 3d
       0.0018265395 0.0019937146 -0.0047332244 0.044175446
000040 e5 77 86 b8 d4 01 00 80 14 8c 4c bc f7 c7 74 39
       -6.41195e-05 -6.56e-43 -0.012484569 0.00023344146
000050 a9 51 0c bb 7f 0b 00 80 83 03 00 80 20 64 e2 3c
       -0.0021410978 -4.124e-42 -1.26e-42 0.027635634
000060 27 e9 15 01 6c 00 00 00 18 2e 0e ba 92 17 16 3d
       2.7534256e-38 1.51e-43 -0.00054237386 0.036643572
000070 81 fa 8a 3c 0b 56 b3 bc 51 6e 35 3a 55 5e b0 3c
       0.016965153 -0.021891614 0.00069210405 0.021529356
000080 53 69 8a bb ac b9 ef 3c 06 17 00 80 7c 8d a4 bb
       -0.0042239814 0.02926334 -8.259e-42 -0.005021749
000090 c0 85 05 3a e5 89 7e 39 1f 06 00 00 da 93 ad 3a
       0.00050934777 0.00024274697 2.196e-42 0.0013242916
0000a0 cd 8a 45 bb 63 19 00 80 16 ed 00 bb 21 50 68 3c
       -0.0030142546 -9.107e-42 -0.0019672564 0.0141792605
0000b0 63 0d 00 00 03 4c ca 3a b9 16 00 00 fb 1d 2d ba
       4.802e-42 0.001543403 8.151e-42 -0.00066038937
0000c0 55 84 e4 ba 62 02 cf 38 2d 0c 00 80 c7 9a bf bc
       -0.0017434458 9.870973e-05 -4.368e-42 -0.023389233
0000d0 79 3b bc ba bf 1d 00 00 9b c3 f2 bb b9 17 00 00
       -0.0014360986 1.0671e-41 -0.007408572 8.51e-42
0000e0 7d 6d 7e 3c 65 ae d0 2c cd 2b 21 3b 4f 18 00 00
       0.015529034 5.9310772e-12 0.0024592758 8.72e-42
0000f0 48 10 00 80 ae 11 14 3c d6 7a be 3a 3d 08 00 00
       -5.84e-42 0.009037418 0.0014532458 2.955e-42

encoder.0.1.running_var f4 [64]
000000 ba 45 53 38 04 00 00 00 2e 8d 81 38 04 00 00 00
       5.0371258e-05 6e-45 6.177496e-05 6e-45
000010 e8 b4 ca 3e 49 df cb 3e ce bd 8d 38 04 00 00 00
       0.39591146 0.3981879 6.758758e-05 6e-45
000020 94 fe 9a 3d aa b4 23 3f 28 51 91 3d 04 00 00 00
       0.07568088 0.63947546 0.070955575 6e-45
000030 b9 cb 90 3e 73 74 a4 3f f3 cb 45 3f 7d 3f 48 3f
       0.28280428 1.2848037 0.77264327 0.78221875
000040 de 46 cd 3c 04 00 00 00 f1 26 50 3e 3e 72 c8 3d
       0.025058206 6e-45 0.20327355 0.09787415
000050 7a 17 01 3f 04 00 00 00 04 00 00 00 90 60 93 3e
       0.5042645 6e-45 6e-45 0.2878461
000060 04 00 00 00 04 00 00 00 42 41 9e 3d 56 5a 13 3f
       6e-45 6e-45 0.07727291 0.57559717
000070 ac f9 01 3f 59 91 77 3e 46 62 e1 3d 60 f0 d5 3e
       0.50771594 0.2417654 0.11005072 0.41784954
000080 70 d3 11 3f 57 f2 0f 3f 04 00 00 00 5d c4 61 3e
       0.56963253 0.56229156 6e-45 0.22047563
000090 6a 6d c5 3d e6 65 0b 3e 04 00 00 00 cb 26 86 3e
       0.0964001 0.1361309 6e-45 0.26201472
0000a0 96 1a 07 3f 04 00 00 00 0f d2 02 3d 31 2a ca 3d
       0.5277494 6e-45 0.03193861 0.098713286
0000b0 04 00 00 00 b5 d2 6e 3e 04 00 00 00 88 14 7a 39
       6e-45 0.23322566 6e-45 0.00023849506
0000c0 00 bc 3d 3f 72 f6 ae 36 04 00 00 00 24 d2 04 3f
       0.7411499 5.214294e-06 6e-45 0.5188315
0000d0 81 42 ab 3e 04 00 00 00 ef b0 77 3d 04 00 00 00
       0.33449176 6e-45 0.06047147 6e-45
0000e0 f4 41 e3 3f c0 41 e5 1e 7d ef 23 3e 04 00 00 00
       1.7754502 2.4273512e-20 0.16009326 6e-45
0000f0 04 00 00 00 3c 3b 14 3f 47 c3 2d 3f 04 00 00 00
       6e-45 0.57902884 0.67876095 6e-45

encoder.1.0.weight f4 [64, 64, 3, 3]
000000 8f 5f 07 3a 70 60 ec 39 da 6c c2 39 01 1c f1 38
       0.00051640806 0.0004508528 0.00037083664 0.00011496992
000010 e2 a7 a7 36 f3 7c 2c b9 4e 5a 88 39 8a f6 4c 39
       4.996532e-06 -0.00016449745 0.00026007224 0.00019546799
000020 17 fb 1b 39 03 61 8b 39 66 e8 7a 39 70 1d e3 38
       0.0001487549 0.00026584425 0.00023928433 0.00010829687
000030 ba ef d8 b6 35 2a 86 31 96 95 46 b9 c4 28 ab 37
       -6.4652095e-06 3.9047117e-09 -0.00018938477 2.0403771e-05
000040 f8 f0 dd b6 d9 e5 cf b8 ea 91 92 3a ad 00 70 3a
       -6.6143657e-06 -9.913342e-05 0.0011182402 0.0009155374
000050 23 95 bc 3a 61 86 65 39 bf 20 29 37 03 12 0d 3a
       0.0014387708 0.00021889202 1.0080809e-05 0.0005381407
000060 83 c5 57 3a eb 43 1e 3a 9d 3a 80 3a 1e 33 a5 8f
       0.00082310307 0.0006037342 0.0009783093 -1.6289946e-29
000070 46 7c 9d 8f 76 b7 c4 8f e2 fb 49 8d f8 2e de 84
       -1.5529264e-29 -1.9397759e-29 -6.22411e-31 -5.2235083e-36
000080 e4 90 ba 8e 0c de 27 8e 02 55 e5 8d 30 18 d9 8e
       -4.5992065e-30 -2.069125e-30 -1.41336795e-30 -5.351792e-30
000090 76 9c 14 3d 5c 5f 20 3d cc 99 12 3d 9f 67 9d 3d
       0.036282025 0.03915344 0.035791203 0.0768578
0000a0 3b 7b 99 3d 4a 18 4c 3d 89 59 80 3d 59 c7 c6 3c
       0.074942075 0.04982785 0.062670775 0.024264978
0000b0 f6 1b 38 3c c9 bd f3 3c 94 a9 3e 3d c7 51 45 3d
       0.011237135 0.029753583 0.04654844 0.048173692
0000c0 95 a3 3e 3d 37 df cf 3c 1e 3a 07 bd 23 7b 3b bd
       0.046542723 0.025374992 -0.03301441 -0.04577173
0000d0 69 c2 d9 bc 4f a1 97 bd b3 cd 92 3a d2 2a 76 3a
       -0.02658196 -0.07403814 0.0011200219 0.0009390536
0000e0 fc a2 b7 3a ac 13 b7 39 e0 14 9a 39 32 20 07 3a
       0.0014010365 0.00034919137 0.00029388722 0.0005154639
0000f0 45 2f 5e 3a 20 1d 2e 3a 52 a7 7a 3a d7 15 00 00
       0.00084756716 0.0006641913 0.0009561676 7.835e-42
000100 7f 08 00 00 e2 0a 00 80 73 3f 00 80 93 3f 00 80
       3.048e-42 -3.904e-42 -2.2761e-41 -2.2806e-41
000110 32 0e 00 80 52 07 00 80 2b 07 00 80 3b 29 00 80
       -5.092e-42 -2.626e-42 -2.571e-42 -1.4791e-41
000120 a3 f2 f0 3d a8 7d 00 3d 9a a8 6c bd 2a a6 f9 3d
       0.11765029 0.031369835 -0.05777798 0.121898964
000130 e0 5b 5c 3d 0a 41 ab bd 39 4e d5 3d 1d 82 57 bd
       0.053798556 -0.083620146 0.104153104 -0.05261432
000140 5c ba e5 bd e8 12 e0 3c 8c 5f 05 3d cb 1c c9 bd
       -0.11217186 0.027352765 0.032561824 -0.09819945
000150 24 f1 f2 3d 7a 6e d1 3d fb 6e 1d bc 4b d0 43 3d
       0.118624 0.1022615 -0.009608979 0.047806066
000160 e4 4c cb bd 27 79 ce bd 1b 1a e3 bc e7 e2 5b bc
       -0.09926775 -0.10081702 -0.027722409 -0.013420797
000170 d9 2f 88 3d 5c ce 11 bd 22 e4 db 39 04 20 ee 3d
       0.06649751 -0.03559719 0.00041940907 0.116272
000180 bb 19 7b bc fe ef 49 3d 8c 89 c7 3d 66 84 27 80
       -0.015325959 0.04930114 0.09743032 -3.62908e-39
000190 e0 b4 20 80 58 79 2d 80 83 17 06 80 e8 32 01 00
       -3.003622e-39 -4.176127e-39 -5.59447e-40 1.10097e-40
0001a0 22 42 0b 80 94 ef 00 80 83 34 06 00 b8 03 07 80
       -1.033914e-39 -8.5944e-41 5.6985e-40 -6.44183e-40
0001b0 75 20 6d 3d 59 00 0b bd fa fa bd bd 91 53 70 3d
       0.05789228 -0.03393588 -0.092763856 0.058673445
0001c0 98 d0 60 3d 30 d7 fb 3c 9e 70 35 3e da 1a 24 3c
       0.05488643 0.030742258 0.17718741 0.010016168
0001d0 6a cc bf 3c da fb 0d 3c 34 2d 91 3c de 35 6f 3c
       0.023412902 0.008666003 0.01772175 0.014600245
0001e0 5d b0 d0 3c 1f b0 ec 3c e7 9e c0 3c 2c 15 07 3d
       0.025474722 0.028892575 0.02351327 0.032979175
0001f0 c7 0c ac 3c 3a 77 81 3c ea fb f2 bc 17 7f b2 3b
       0.021002186 0.015803922 -0.029661138 0.005447279
000200 ef 3d 9d bc 66 25 77 3d 5d b5 71 3d c7 41 bb b9
       -0.019194571 0.0603384 0.059010852 -0.00035716427
000210 8d 7f 0d 3d be ad 9a 3d f7 0f 16 bd 96 ca ce ba
       0.03454547 0.0755267 -0.03663632 -0.0015776928
000220 54 27 4c 3c b5 4a d5 3c 87 8c 6b 3b b1 13 1c 3d
       0.012460548 0.0260366 0.0035941915 0.038104717
000230 4d 03 6b 3d 74 e9 0e bd a0 f8 4b bc e6 04 02 3d
       0.057376195 -0.034890607 -0.012449414 0.031742953
000240 fa 9a 98 3d bb 8a 8c 3b fe 67 16 3d 41 63 e8 3d
       0.074514344 0.004288999 0.03672027 0.11347056
000250 b5 ea a6 3c 3e 5c 95 3d 45 a6 a6 3d e7 e0 8d 3d
       0.020375589 0.072929844 0.08137182 0.06927662
000260 db 56 aa 3d bc 13 00 00 1a 3b 00 00 38 32 00 80
       0.083173476 7.08e-42 2.1202e-41 -1.8015e-41
000270 4b 2f 00 00 ae 31 00 00 a7 05 00 00 e5 0f 00 80
       1.6966e-41 1.7822e-41 2.028e-42 -5.702e-42
000280 7f 38 00 80 78 34 00 00 d8 34 3b 3d 9a f9 cd 3c
       -2.0267e-41 1.8822e-41 0.045704693 0.025143433
000290 2d 2a 60 3c 2c 29 44 3d 91 6b 2c 3d b4 50 20 3d
       0.0136819305 0.047890827 0.04209477 0.039139464
0002a0 31 80 84 3b 0d 78 3e 3c 19 c2 11 3d 2f a0 de 3d
       0.004043602 0.011625302 0.035585497 0.10870396
0002b0 63 30 84 3d 6c 05 a2 3d 74 e9 e5 3d f8 76 98 3d
       0.064545415 0.079111904 0.11226168 0.074445665
0002c0 91 fa 12 3e df c6 2e bc 2b 09 73 3d 4e 53 ff 3d
       0.14353396 -0.010667532 0.059334915 0.12467061
0002d0 d4 07 0c 3c cd 49 93 3b 77 d0 c5 3c 0c 4f 08 3c
       0.008546788 0.0044948817 0.024147255 0.0083196275
0002e0 8e 7f bf 3b 42 0e 9f bc b6 47 6d bc 9f 64 68 bc
       0.005844063 -0.019415978 -0.014482429 -0.014184146
0002f0 5f 79 f0 bc 26 cc 37 80 10 3a 30 80 55 78 98 00
       -0.02935475 -5.124187e-39 -4.428933e-39 1.4002162e-38
000300 37 33 07 80 45 0d 00 00 b9 a4 de 00 4b 54 2f 00
       -6.61221e-40 4.76e-42 2.0446572e-38 4.346507e-39
000310 ea c5 2d 00 a2 5f 01 01 c6 0d 00 80 81 2a 00 80
       4.203596e-39 2.376217e-38 -4.941e-42 -1.5248e-41
000320 f0 b4 00 80 70 6a 00 80 92 49 00 80 34 1c 01 80
       -6.4908e-41 -3.8183e-41 -2.6392e-41 -1.01953e-40
000330 0b 9d 00 00 59 c6 00 00 d4 23 00 80 9b 90 f0 3c
       5.6336e-41 7.1154e-41 -1.2853e-41 0.029365828
000340 cc b4 f4 3c eb 69 19 3d c2 76 3c 3b dc 3b f0 3b
       0.029871367 0.037454527 0.0028757309 0.0073313545
000350 3d f0 78 3c af 9f 8a 3c 32 03 08 3d 61 11 33 3d
       0.015193996 0.016921846 0.033206172 0.043717746
000360 a1 d8 9d 39 5b 87 8d 39 57 3d 01 39 59 31 49 35
       0.00030106775 0.00026994463 0.0001232525 7.4950145e-07
000370 d3 4e a2 32 3f 49 5f b9 89 51 2d 38 b5 3c f8 36
       1.8895127e-08 -0.00021294224 4.132235e-05 7.398043e-06
000380 38 47 c5 b8 c9 5b 4d 19 48 44 23 19 f0 a5 a9 19
       -9.4069575e-05 1.06167875e-23 8.440692e-24 1.7541212e-23
000390 cd 35 1b 18 e1 4f 26 90 b2 e3 4f 19 92 b8 9a 97
       2.0060443e-24 -3.2799264e-29 1.0747632e-23 -9.998609e-25
0003a0 0e f3 6d 98 86 88 ef 18 3e 92 df 3c 88 b4 ca ba
       -3.0754243e-24 6.1917905e-24 0.027291413 -0.001546518
0003b0 a9 f0 5f bc 43 16 1f 3d 51 39 c0 3d 4b 52 74 3d
       -0.013668218 0.03883959 0.09385932 0.059648793
0003c0 35 ec 8c 3c fc e7 4b 3d 54 70 db 3d e7 9e 08 bc
       0.017202476 0.049781784 0.10714784 -0.0083386665
0003d0 fe 42 86 bb e3 6a 6a 3c f3 b7 62 bb 04 67 d6 3b
       -0.0040973416 0.01430771 -0.0034594506 0.006543042
0003e0 d4 13 f6 3c 02 32 ac bc 9a 64 26 bc 15 c6 0f 3c
       0.030038752 -0.02101994 -0.010155821 0.008775254
0003f0 1b 9b 4a 3c a9 38 4d b9 ff b3 98 3c ad e1 82 3c
       0.012366082 -0.00019571431 0.018640516 0.015976751

encoder.1.0.bias f4 [64]
000000 54 b6 bd b6 6a 4f ba b5 a0 a7 88 37 f3 75 69 b4
       -5.6538647e-06 -1.3881192e-06 1.629052e-05 -2.1742726e-07
000010 5e 58 8b b6 bb 13 f9 36 41 1b 4f b7 b3 d6 87 b7
       -4.15281e-06 7.423075e-06 -1.2344507e-05 -1.6193231e-05
000020 7d fc 93 33 50 7e b4 b7 21 0f 00 80 f4 ba 28 37
       6.891148e-08 -2.1516491e-05 -5.427e-42 1.0057109e-05
000030 e8 a0 63 36 e4 af 12 b7 23 ac 19 b7 e6 b5 85 b6
       3.3919296e-06 -8.743231e-06 -9.159589e-06 -3.9848846e-06
000040 56 4d 97 37 55 b9 b2 b6 58 be 7f 37 15 08 87 36
       1.8036615e-05 -5.326389e-06 1.5243502e-05 4.0242544e-06
000050 7a d1 c5 b7 8d 74 a3 b5 08 a9 1b 37 db c4 24 b7
       -2.3581775e-05 -1.2178367e-06 9.278076e-06 -9.820996e-06
000060 d8 39 0b 37 14 4b 6b b7 0d b3 0c 38 58 93 46 b7
       8.298513e-06 -1.4024572e-05 3.3545355e-05 -1.1836026e-05
000070 82 a4 09 37 0d cd f2 37 8c f7 b5 b7 a4 04 61 b7
       8.204139e-06 2.8944132e-05 -2.1692154e-05 -1.3412126e-05
000080 df c7 e6 34 b0 1e 96 b7 41 be 7d b7 2d 10 9d b7
       4.2986264e-07 -1.7895683e-05 -1.5124272e-05 -1.872339e-05
000090 5c ca 91 b7 86 31 00 80 96 7a 85 b7 e7 d4 2e b8
       -1.7379578e-05 -1.7766e-41 -1.5911919e-05 -4.1683114e-05
0000a0 52 2d 4f b7 00 79 8a 35 76 1f 6f 35 40 2d f1 37
       -1.2348713e-05 1.0317017e-06 8.908022e-07 2.875051e-05
0000b0 f0 0e 0b 38 4f 81 a1 b7 31 67 88 37 c7 ca 65 b7
       3.3154094e-05 -1.925291e-05 1.6260516e-05 -1.3696676e-05
0000c0 64 ee 78 b7 3b b0 b8 b7 2d 3e 9f 37 01 55 1b 37
       -1.4837457e-05 -2.2016573e-05 1.898323e-05 9.258511e-06
0000d0 82 22 3a b7 0a 84 6d 36 8b 60 dd b7 5f 75 ae b6
       -1.1094498e-05 3.539261e-06 -2.639021e-05 -5.199268e-06
0000e0 cc 74 3d b7 d6 70 60 b7 34 96 91 b7 37 dc e8 36
       -1.1292472e-05 -1.3377712e-05 -1.735529e-05 6.939775e-06
0000f0 a8 2f d2 37 bd 87 6a 37 8d cd 34 37 ad 79 58 36
       2.5056142e-05 1.3979091e-05 1.0776695e-05 3.2257333e-06

encoder.1.1.weight f4 [64]
000000 bf 5b fd 3d a8 f5 c3 3e 3c 09 d7 3e eb 58 77 3e
       0.12371015 0.38273358 0.41999233 0.24155013
000010 3f d3 42 3e c0 7a ae 3e f9 1b 84 3e 69 da b6 3e
       0.19025896 0.34078026 0.2580259 0.3571351
000020 d9 b8 01 ba b5 76 93 3e b0 9a a8 38 35 d4 82 3e
       -0.0004948504 0.28801504 8.039677e-05 0.25552526
000030 84 2f b4 3e 93 d3 b4 3e 05 4b 9b 3e 55 5d af 3e
       0.35192502 0.35317668 0.30330673 0.34250894
000040 c5 3c 1b 3f 06 2e 3b 3e e8 52 d7 3e 66 2a 89 3e
       0.606396 0.18279275 0.4205544 0.2679016
000050 b6 58 54 3e c2 9b 8c 3e 11 10 ce 3e 0d 83 ab 3e
       0.20736966 0.27462584 0.40246633 0.3349842
000060 c2 c0 95 3e 6d 36 cf 3e 95 79 81 3e 44 cf c6 3e
       0.29248625 0.4047121 0.25288072 0.38830006
000070 aa b0 7b 3e fb b8 ec 3e 86 a3 0d 3f fe 5f 13 3e
       0.2457911 0.4623488 0.5532764 0.14392087
000080 68 21 9a 3e 76 c1 74 3e cc c5 93 3e 1e 94 97 3e
       0.30103612 0.23901924 0.28861845 0.29605192
000090 9d 68 7c 3e 55 33 00 00 09 87 dd 3e e7 0e 18 3f
       0.24649282 1.8414e-41 0.43267086 0.5939774
0000a0 4e 26 72 3e 23 5e ec 3e 69 39 e2 3e ad 63 b7 3e
       0.23647425 0.4616557 0.44184425 0.35818234
0000b0 0a 84 a7 3e 09 e8 91 3e bf 0b a9 3e 5e c7 a1 3e
       0.32717925 0.2849734 0.33016774 0.31597418
0000c0 3f b8 22 3f 7d 12 be 3e d9 98 99 3e 55 b7 ad 3e
       0.6356239 0.3712348 0.29999426 0.33928934
0000d0 10 e0 14 3f 0f 54 ee 3e 91 7d ba 3e 0a fb 7e 3e
       0.5815439 0.46548507 0.36423925 0.24900451
0000e0 e7 d1 ca 3e 2b ac 10 3e dd b8 2e 3f 6d a6 96 3e
       0.39613268 0.14128177 0.6825083 0.29423848
0000f0 d4 6b 25 3f 72 b9 e8 3e fa a7 e3 3e a7 9b 82 3e
       0.6461766 0.45453984 0.44464093 0.25509378

encoder.1.1.bias f4 [64]
000000 7e 41 17 bc b9 7f 45 be 7f 6d f3 bd 48 74 e9 bd
       -0.009231923 -0.19287004 -0.11886119 -0.11399132
000010 4b 5f 98 bd 83 2d 55 be b2 4d 17 be 0d 06 3a be
       -0.07440051 -0.20818143 -0.14775732 -0.1816637
000020 02 a9 97 3b ad b0 0b be 59 91 01 ba 2f 22 09 be
       0.0046283016 -0.13641615 -0.0004942618 -0.13391946
000030 55 75 de bd da 7b 5e be a4 b2 35 be 4e 2f 58 be
       -0.10862223 -0.21726933 -0.17743927 -0.21111795
000040 66 49 aa be 25 fb 8c bd 3d 81 87 be d0 0a 9e bd
       -0.33259124 -0.068838395 -0.26465788 -0.07716906
000050 f5 97 27 bd 7a a6 19 be bd fa 5e be d0 63 db bd
       -0.040916402 -0.15004912 -0.21775337 -0.10712397
000060 57 cd 04 be de ae 99 be 58 e3 42 bd 9e bf 83 be
       -0.12968956 -0.30016226 -0.047580093 -0.2573213
000070 c7 67 d2 bd ca 39 8d be 2b 6f 8d be e1 98 24 3d
       -0.102737 -0.27583152 -0.27623877 0.04018486
000080 1f e9 3e be a3 8a b8 bd 89 51 0e be f4 27 11 be
       -0.18643616 -0.09010818 -0.1389829 -0.14175397
000090 6c b7 c1 bd 46 31 22 aa 18 c8 31 be d4 61 b1 be
       -0.09458813 -1.4405586e-13 -0.17361486 -0.3464495
0000a0 77 c9 e3 bd 5b 05 97 be 71 24 85 be 53 62 69 be
       -0.11122411 -0.29496273 -0.26004365 -0.22791414
0000b0 b1 5c 2e be 71 e4 13 be 8a c4 bb bd 62 e1 41 be
       -0.17027546 -0.14442612 -0.09168346 -0.18933633
0000c0 22 fd cb be 2f 34 3a be 89 fd 3d be d9 c2 4d be
       -0.39841563 -0.18183969 -0.18553747 -0.2009386
0000d0 c3 fd b6 be 27 42 72 be 74 94 0f be dd b5 08 be
       -0.3574048 -0.23658048 -0.14021474 -0.13350625
0000e0 10 a7 c8 bd 08 2c 2a be 22 2e bb be 63 31 0f be
       -0.0979749 -0.16618359 -0.36558634 -0.13983683
0000f0 4b 8e b6 be bb d3 1c be a0 38 7a be ca d1 b5 bd
       -0.35655436 -0.15315144 -0.24435663 -0.08877905

encoder.1.1.running_mean f4 [64]
000000 c9 29 98 3f f7 d0 12 bf 74 84 40 bf 0c 9a 39 be
       1.1887752 -0.57350105 -0.7520211 -0.1812517
000010 d6 a5 d0 be a4 ac a7 be 93 83 d8 be da de 0c bf
       -0.40751523 -0.32748902 -0.42287883 -0.55027544
000020 3d 46 56 3b 7a e6 1a bf 5d c1 90 36 8f 0a c7 be
       0.0032695674 -0.6050793 4.314045e-06 -0.38875243
000030 6e ed 43 bd 5f ad 79 bf a7 4a 30 be 03 c8 59 be
       -0.047833852 -0.9753017 -0.17215978 -0.21267705
000040 c6 f9 6c bf 81 6f 9c be f9 71 e2 be 79 b5 3a bf
       -0.92568624 -0.3055382 -0.4422758 -0.72933155
000050 60 a2 16 bf ba 45 fa be 31 3f 8c be f3 6f 16 bf
       -0.58841515 -0.48881322 -0.2739196 -0.5876457
000060 ed 1b 9e be ce 69 3f bf 1e 01 8d bf ea 08 f2 be
       -0.3088068 -0.7477082 -1.1015966 -0.47272426
000070 14 83 da be ab 0e 99 bf 46 c0 82 bf 5c d7 6b bd
       -0.4267813 -1.1957601 -1.0214927 -0.05757843
000080 73 7e 07 bf c9 28 46 bf 6a dc d5 be 10 c0 e0 be
       -0.5292732 -0.77405983 -0.41769725 -0.43896532
000090 71 ef af be e6 d6 01 00 5c a5 6e bf f4 be 38 bf
       -0.34362367 1.68927e-40 -0.9322107 -0.7216637
0000a0 be 7e 8a be 68 6a 56 bf 74 7b 65 bf 92 54 14 bf
       -0.27049822 -0.83756113 -0.896415 -0.57941544
0000b0 e2 2b 2e bf 82 d9 5c bf 4d 3b 84 bf 81 38 3f bf
       -0.6803571 -0.8626939 -1.0330597 -0.74695593
0000c0 7b 14 4c bf 04 d2 fb be e8 fb 82 3d 9a 9c d1 be
       -0.7971875 -0.49183667 0.063957036 -0.4093979
0000d0 ba 72 4e bf ad 9c 0a bf da 3b c7 be 2b 98 91 be
       -0.8064381 -0.5414532 -0.3891285 -0.28436407
0000e0 c0 69 14 bf 4a b4 6c 3d e9 e6 70 bf 70 1f 49 bf
       -0.5797386 0.057789125 -0.9410234 -0.78563595
0000f0 22 fd a6 bf c9 68 73 bf b5 2f df be 15 fa d2 be
       -1.3046 -0.95081764 -0.43591085 -0.41206422

encoder.1.1.running_var f4 [64]
000000 b7 d9 0b 3f 41 5d c4 3e 56 de 62 3f b6 5a 82 3e
       0.5462908 0.38352397 0.8862051 0.25459832
000010 aa c8 7d 3e da 06 af 3e 4f 45 89 3e d3 fb f0 3e
       0.24783579 0.34184915 0.2681069 0.47067127
000020 c7 49 9e 38 40 31 01 3f 54 4e aa 2d 5c bb 99 3e
       7.547769e-05 0.50465775 1.9361547e-11 0.30025756
000030 cf d4 f6 3e 41 ec e9 3e 51 83 a1 3e 8b 1d d6 3e
       0.48209235 0.4568806 0.315455 0.41819414
000040 30 34 9b 3f ed ab 1a 3e 67 f7 0c 3f f9 2f a6 3e
       1.2125301 0.15104647 0.55065006 0.32458475
000050 ec e4 9a 3e 2c b0 a1 3e c2 23 c5 3e 7e df 26 3f
       0.3025278 0.3157972 0.38503844 0.6518477
000060 84 a5 b5 3e 23 e1 f5 3e ac eb b8 3e 2f d3 bb 3e
       0.3547784 0.48023328 0.36117303 0.36684558
000070 2e c5 cf 3e cc 00 53 3f 75 78 d3 3f ab 27 71 3e
       0.40580124 0.8242309 1.6521136 0.23550288
000080 47 91 aa 3e cd f8 82 3e 6a 17 b0 3e fb e6 89 3e
       0.33313963 0.25580445 0.34392864 0.26934037
000090 39 b0 9d 3e 04 00 00 00 fd 6b 08 3f 35 d3 82 3f
       0.3079851 6e-45 0.5328978 1.0220705
0000a0 56 7b bf 3e 72 20 15 3f 96 4e 13 3f bc c4 74 3e
       0.37398785 0.5825263 0.5754179 0.23903173
0000b0 32 9e 1c 3f 23 7a c6 3e 79 f7 08 3f c1 f1 9e 3e
       0.61178887 0.38765058 0.53502613 0.3104382
0000c0 19 07 98 3f e2 48 37 3f a2 54 91 3e da b2 af 3e
       1.1877166 0.71595585 0.28384882 0.3431614
0000d0 87 d2 41 3f 3f 03 15 3f 9c ed 0e 3f 0f 3d 6f 3e
       0.75711864 0.5820808 0.55831313 0.23363136
0000e0 27 5a 77 3f 5b 13 ea 3d 04 f9 93 3f a6 b9 a8 3e
       0.96621937 0.11429473 1.1560369 0.3295414
0000f0 e8 63 b8 3f 8d c7 71 3f be 8f 05 3f e5 6e 3c 3f
       1.4405489 0.94445115 0.5217246 0.7360671

encoder.2.0.weight f4 [64, 64, 3, 3]
000000 4e 7c 92 3d 56 c8 f1 3c af f7 ad 3a 8a 22 a1 3c
       0.071526155 0.029514473 0.0013272668 0.01966979
000010 64 e4 26 bd 7c e0 e3 bc 9f 69 26 bd a5 10 ca bd
       -0.040745154 -0.027817003 -0.040628072 -0.09866456
000020 e1 9b 93 bd d5 28 d7 bd c3 96 f9 bd 98 d3 dc 3c
       -0.07207466 -0.10505835 -0.12186959 0.026956365
000030 df 63 0a 3d fc bf 94 bd 95 8c b9 3d e9 ed 3b 3e
       0.03378665 -0.072631806 0.09060017 0.18352474
000040 8f eb 94 bd 4f e1 1f bd a7 74 05 be d5 02 53 bd
       -0.07271492 -0.03903323 -0.1303278 -0.051516373
000050 1f 24 9a 3c ff eb f5 bd 30 40 86 bd 3c 23 68 3d
       0.018816052 -0.12007903 -0.065552115 0.056674227
000060 ab ca e5 bd 7d 6b e6 bd 3f 6f 34 3d a3 79 9e bc
       -0.112202965 -0.112509705 0.044051405 -0.01934511
000070 96 b0 0e bd 0d 50 51 bd 20 0c aa 3d 71 8b a3 3d
       -0.034836374 -0.051101733 0.08303094 0.07985581
000080 f9 95 38 3d f8 c2 b7 3c 5a e4 70 3b 19 79 45 3b
       0.0450649 0.022431836 0.0036757202 0.0030131994
000090 1b a5 39 bd 99 b2 78 3d e6 d0 c2 3d 7d 47 21 bd
       -0.045323472 0.0607172 0.095125005 -0.039374817
0000a0 9e e3 89 bd 17 17 66 3b 0e fa bc bc c7 56 c4 bc
       -0.06732868 0.0035108977 -0.023068454 -0.02396716
0000b0 ea 8a 10 ba dd 2e ce 3c b3 5c 55 bc dd 2b e3 bc
       -0.0005513864 0.02516883 -0.0130225895 -0.027730877
0000c0 e6 6f 41 3c ec b6 41 bd f2 8f 81 3c 95 4b 8e 3d
       0.011806464 -0.04729359 0.015815709 0.0694801
0000d0 9a bd 69 3c 6b 6a d7 bc 75 0f 84 bb d6 94 0c bc
       0.014266396 -0.026295861 -0.004030163 -0.008580407
0000e0 5e 29 12 bd 48 a6 9c bc 61 6b 76 bd ae 49 ec bc
       -0.035683982 -0.019122258 -0.060161 -0.028843727
0000f0 9d ad 14 3d 41 bc 9f bd ca 2e 17 bd f1 38 5e bd
       0.036298383 -0.077995785 -0.036909856 -0.054253522
000100 6b ec 24 bd e4 20 a8 3c 07 dd 88 bd c3 d9 88 bd
       -0.04026453 0.020523496 -0.066827826 -0.0668216
000110 e4 be ee 3b c2 cd 8e bd 64 c3 83 bd ad de 93 3c
       0.0072859395 -0.06972839 -0.06433752 0.018050516
000120 2a 02 13 3b b9 73 99 3a ea 0d 43 3a f9 47 16 3b
       0.002243171 0.0011707462 0.0007440733 0.0022931083
000130 c6 fa 3a 3a 2b 0f 10 3a d0 e9 f1 3a 33 16 3d 39
       0.0007132705 0.0005495424 0.0018456522 0.00018032714
000140 cd ac 82 37 8f f9 92 bd b1 70 15 bd 27 63 b5 3c
       1.5577674e-05 -0.07176506 -0.036484424 0.022142006
000150 fc 93 b3 bd 25 3f 2b bd e9 d8 10 3d e1 51 4f bd
       -0.0876846 -0.041808266 0.03536311 -0.050615195
000160 ea 3c be bc 9c 00 76 3c 18 c1 fc b3 34 d3 8f b4
       -0.023222405 0.015014794 -1.1769788e-07 -2.6789496e-07
000170 a1 cc 1f b5 60 db 4f b4 6e 65 16 b4 d3 dd ce b4
       -5.952989e-07 -1.9358185e-07 -1.4006739e-07 -3.8531888e-07
000180 25 06 14 b4 81 55 2c b5 3f 15 02 b5 a6 fb 56 bd
       -1.378581e-07 -6.419942e-07 -4.845969e-07 -0.052486084
000190 f5 fa 60 3d 4b 14 47 3d 1d 3c 86 bd 5a 40 a7 bb
       0.05492683 0.048603337 -0.065544344 -0.005104107
0001a0 57 d7 1c bd e2 b5 e3 bd ab 1f ef 3d f3 3a 9d 3b
       -0.0382913 -0.11118676 0.11675962 0.004798287
0001b0 35 86 90 ba 95 7d 35 bd 6c b8 0b be d1 e8 1e be
       -0.0011026325 -0.044309217 -0.1364457 -0.155185
0001c0 25 d3 dd bd b4 60 b3 bd e7 b1 85 bd e6 e5 41 be
       -0.10831288 -0.08758679 -0.06528073 -0.18935356
0001d0 87 74 02 be 56 1a fb bc be 11 e8 bc a3 15 89 bc
       -0.12739764 -0.030652206 -0.028328773 -0.01673395
0001e0 4b a7 10 bd 99 17 35 bd 2a e3 38 bd e0 54 c0 bd
       -0.035315793 -0.044211958 -0.045138516 -0.093911886
0001f0 61 bf ab bd ba cd d8 bd 6a e2 61 bd 95 63 8d bd
       -0.08386112 -0.10586114 -0.055147566 -0.069037594
000200 28 da 99 bd b1 6e b7 3b 49 7f 8b bd 60 df 8b 3c
       -0.07512313 0.0055979122 -0.06811387 0.017074287
000210 84 c4 21 bb 23 5e a6 bd ea 99 72 bc 58 0d dc 3c
       -0.0024683783 -0.08123424 -0.014807204 0.026861832
000220 a3 19 c1 3d f9 d8 ba 3d fa 79 9d 3d 89 c5 99 bd
       0.09428718 0.091234155 0.07689281 -0.0750838
000230 f1 fe 63 bd 4c 57 d2 3a 3c d0 84 3d 6a e1 8f 3d
       -0.055663053 0.0016047745 0.0648503 0.07025416
000240 47 e2 f0 bc 33 43 a2 3c 07 d2 73 bd 86 fb 89 bd
       -0.029404772 0.019807434 -0.05952647 -0.067374274
000250 d3 9b 96 3c ac 68 a0 bd ec 02 7d 3d f2 9d 22 bc
       0.01838485 -0.078324646 0.061770365 -0.009925352
000260 9c a7 ab bd db 73 91 3b 0c b7 c4 3c 7e 90 b0 3c
       -0.08381578 0.00443886 0.024013065 0.021553274
000270 d4 9e 50 3d b8 aa 6d 3d ec 70 7e 3d e4 de 47 bd
       0.05093272 0.05802414 0.06211941 -0.04879655
000280 2c 48 c9 3d 4b 16 71 3d 04 0b 3c 3d 8c 01 7b bc
       0.09828219 0.05885915 0.045908943 -0.015320193
000290 f3 af cb bd 1e 45 5d 3d 35 bc 45 bd da 92 db bd
       -0.09945669 0.054020993 -0.04827519 -0.10721369
0002a0 c9 ec 17 3e a8 a4 d4 3c 53 87 ca bd de ed b3 3b
       0.1483642 0.02595742 -0.09889092 0.0054910025
0002b0 f9 43 6e bd a0 08 aa bd d5 37 37 3c c0 1f 82 bd
       -0.058170293 -0.08302426 0.011182745 -0.06353712
0002c0 c9 b7 8f bd 23 43 95 bd e7 ec e9 3b 06 60 26 bb
       -0.07017476 -0.07288196 0.0071388367 -0.0025386824
0002d0 00 f9 dc 3d 96 e6 9d 3d 7f 8e 9b bc 6b 5f 24 3d
       0.107896805 0.077099964 -0.018988846 0.04013006
0002e0 eb 2b 56 3c 03 48 56 bd 99 00 19 bc 11 98 81 bc
       0.013071994 -0.05231477 -0.009338521 -0.015819581
0002f0 74 d5 d4 bd 66 82 1e 3d 19 41 84 bd a8 9a a5 3b
       -0.103922755 0.038698576 -0.06457729 0.005053837
000300 80 4d 4b 3d 8b 3f 9b bd 0e 7b 33 bd f6 a5 0c 3d
       0.049634457 -0.07580479 -0.043818526 0.03433796
000310 5d 5c 87 bc eb 42 8f bc 91 85 ea 3d c5 50 99 3d
       -0.016523534 -0.017487964 0.11451257 0.07486109
000320 9e 60 75 bd b2 ae 25 3e 60 fc a9 3b 26 d2 f5 bb
       -0.059906594 0.16179922 0.005187556 -0.0075018583
000330 62 d3 97 3d fa 01 ff bc 2b 1b 82 bd 84 6c f5 3d
       0.07413365 -0.031128872 -0.06352838 0.11983588
000340 a1 17 a2 3d 02 90 3a bd 42 19 83 bc 5a ec 79 3c
       0.07914663 -0.045547493 -0.016003255 0.0152541045
000350 33 c3 23 3b b1 83 bb 3d ab 9e 80 bd 56 fa bb bd
       0.0024988174 0.091559775 -0.062802635 -0.09178607
000360 ab 78 4a bd 42 db 93 bd 21 dd 21 bd 09 e1 02 bd
       -0.049431484 -0.072195545 -0.039517526 -0.03195289
000370 8c 67 a3 bc ed a1 c1 bc eb 86 aa 3c 08 11 84 bd
       -0.019946836 -0.023636783 0.020816287 -0.06448561
000380 74 05 bb 3b ca 9d bd bd 8a 04 59 3d 98 a9 51 3d
       0.005707437 -0.092586115 0.052982844 0.051187128
000390 b1 d9 bb bd 28 93 cb bd de 65 8f bd fa 4b 8a bc
       -0.09172381 -0.09940177 -0.070018515 -0.016881932
0003a0 7d 89 da bd 72 4d a2 bd 62 1f df bd ae b2 02 3d
       -0.10670755 -0.07924928 -0.10894658 0.031908683
0003b0 c8 74 31 3d a5 87 53 bd 9d 03 7a 3d 4d e0 33 3d
       0.043324262 -0.051643033 0.061038602 0.04391508
0003c0 27 90 c0 bc 9b e2 bb 3d 23 81 6f 3d 0d 95 31 3d
       -0.023506237 0.09174081 0.058472764 0.043355037
0003d0 c2 b7 5a 3c 27 0d fd 3c 89 a7 36 3d c8 d8 72 3d
       0.013349475 0.03089006 0.044593368 0.05928877
0003e0 8d cc 71 3d 51 7c ca 3d 84 d9 20 3e 4f c9 bf 3b
       0.059032965 0.09886993 0.15707976 0.0058528553
0003f0 7a 77 91 3c 1e f5 e1 bc 88 cf 5d 3b b9 67 f2 3c
       0.017757166 -0.027582701 0.0033845622 0.029590474

encoder.2.0.bias f4 [64]
000000 fa 9c 3c b7 53 74 a3 37 3f 78 ce b7 db bb 90 37
       -1.1242222e-05 1.9485282e-05 -2.4613108e-05 1.7253615e-05
000010 c4 23 9f 37 49 aa 0b 38 4a 17 5e 37 e9 e0 f2 b7
       1.8970932e-05 3.3298773e-05 1.3237654e-05 -2.895338e-05
000020 fe 1c 39 b5 e2 4f 9d 36 82 19 a2 37 06 b6 26 b6
       -6.896006e-07 4.688264e-06 1.9323783e-05 -2.484188e-06
000030 09 7b 04 b6 b0 5a 62 b7 92 70 d2 b7 4f 5c e1 b6
       -1.9741149e-06 -1.3491765e-05 -2.508637e-05 -6.7162687e-06
000040 eb 0e 00 80 ad 20 b9 36 b0 1c 49 b6 c7 54 54 b7
       -5.352e-42 5.5172336e-06 -2.9968032e-06 -1.26559235e-05
000050 9c 7d 95 35 ca f2 89 37 de c7 3d 37 a6 25 e8 b7
       1.1137922e-06 1.644473e-05 1.1311813e-05 -2.7674087e-05
000060 a8 bd 49 b6 9b 7a 3d b7 7d 49 d1 36 e6 5e af b5
       -3.0061728e-06 -1.1293824e-05 6.2372405e-06 -1.3066135e-06
000070 5e 0d 1d b7 ac 91 57 37 cd 63 a8 36 74 5b a9 36
       -9.3610415e-06 1.28489155e-05 5.0184085e-06 5.047239e-06
000080 9a 9a 02 b8 89 21 b1 b7 ad e8 b8 b7 a9 de 20 b6
       -3.11384e-05 -2.111566e-05 -2.2042857e-05 -2.3971463e-06
000090 b6 ba 8f b6 37 0c af b6 dc f8 93 37 e4 b6 b3 37
       -4.283468e-06 -5.2168284e-06 1.763965e-05 2.1423628e-05
0000a0 ca bc 51 b7 3b 2a 01 b7 0a a3 c1 b6 d0 f3 a2 37
       -1.2501327e-05 -7.698832e-06 -5.7708285e-06 1.9425439e-05
0000b0 5e 20 ee b7 4d 31 1c 37 26 f2 98 37 c9 ac 74 b7
       -2.8386883e-05 9.309803e-06 1.8232571e-05 -1.4583763e-05
0000c0 28 c6 90 36 6a 07 e5 36 c7 fb d1 b6 a2 5f ea b6
       4.314603e-06 6.825595e-06 -6.257996e-06 -6.9848766e-06
0000d0 15 17 2c b7 d1 a8 e6 b6 aa 9f cb 37 fe 87 b8 b6
       -1.0257373e-05 -6.874187e-06 2.4273835e-05 -5.499459e-06
0000e0 94 40 8b b7 8f 11 e6 37 57 ab 42 37 f2 16 85 36
       -1.6600163e-05 2.7426313e-05 1.1603194e-05 3.96638e-06
0000f0 20 58 cd 37 fb 1c a4 b6 3f 8a 01 37 d3 8d 02 b7
       2.447894e-05 -4.8909546e-06 7.721187e-06 -7.781625e-06

encoder.2.1.weight f4 [64]
000000 c1 31 93 3e 87 87 3a 3e 24 69 54 3e 2b a7 b7 3e
       0.28748897 0.18215762 0.20743233 0.35869727
000010 38 e9 8d 3e 26 f3 6f 3e 1a 69 8d 3e e7 4d ee 3e
       0.27716994 0.23432598 0.2761925 0.4654381
000020 75 42 e1 3e d3 a2 90 3e 4d 8b 85 3e 02 f9 ed 3e
       0.43996015 0.28249225 0.2608284 0.4647904
000030 86 91 04 3f 38 f1 b3 3e 55 22 d3 3e 1d f1 9b 3e
       0.5178455 0.35144973 0.4123713 0.30457392
000040 4b 45 00 80 78 c2 8a 3e 36 91 af 3e bb 9e 88 3e
       -2.4858e-41 0.27101493 0.34290475 0.26683602
000050 84 01 a4 3e 31 b8 c9 3e 4d a1 01 3f ff ff b2 3e
       0.32032406 0.3939834 0.5063675 0.34960935
000060 85 8b f8 3e 02 22 a6 3e f3 2b c3 3e df fa a7 3e
       0.48543945 0.3244782 0.38119468 0.32808587
000070 ed da f2 3e 40 ae bb 3e 0a 43 83 3e 1e 2d cc 3e
       0.47432652 0.3665638 0.25637084 0.39878172
000080 2b d0 d9 3e e3 5b 9f 3e 8d d1 be 3e 45 41 8c 3e
       0.42541632 0.31124792 0.3726925 0.27393547
000090 b5 8c b0 3e e5 93 be 3e 68 18 8b 3e ab eb a3 3e
       0.3448235 0.3722221 0.27167058 0.32015738
0000a0 16 f8 90 3e cf a4 78 3e a3 c7 9f 3e 56 ef a2 3e
       0.28314275 0.2428162 0.31206998 0.31823224
0000b0 db fb e9 3e 09 f8 50 3e fb fc be 3e 66 8a d0 3e
       0.45699963 0.20407118 0.37302384 0.4073059
0000c0 bf 14 b2 3e da 7a b3 3e 65 02 70 3e e9 54 b5 3e
       0.34781453 0.35054666 0.23438413 0.35416344
0000d0 79 79 8f 3e 04 92 a2 3e 46 18 9c 3e 15 e1 a6 3e
       0.28022364 0.31752026 0.3048727 0.325936
0000e0 67 50 8c 3e 3c ec 77 3e 48 b8 84 3e 1f 41 be 3e
       0.27405092 0.2421121 0.25921845 0.37159058
0000f0 37 82 b4 3e b6 03 b2 3e 60 65 ab 3e 4c 4f 03 3f
       0.35255596 0.34768456 0.3347578 0.5129287

encoder.2.1.bias f4 [64]
000000 4d 11 16 be fc b8 a2 3c b5 0f 27 bd da d4 91 be
       -0.14655037 0.019863598 -0.040786464 -0.28482705
000010 46 60 28 be 74 bb 06 be c3 e3 50 be 94 a9 c4 be
       -0.16442975 -0.13157445 -0.20399384 -0.38410628
000020 4b 91 d8 be 93 af 38 be 4a 1f 15 be ac ec ad be
       -0.4229835 -0.18035726 -0.14562717 -0.3396963
000030 31 d5 b1 be 42 07 89 be 1d d0 69 be 06 23 04 be
       -0.34732965 -0.2676335 -0.22833295 -0.12903985
000040 92 7a 18 80 59 8d 65 be 50 2c 92 be e2 52 e0 bd
       -2.248022e-39 -0.22417201 -0.28549433 -0.10953309
000050 27 57 23 be 78 10 81 be 8b 51 9b be 59 b9 f8 bd
       -0.15951215 -0.25207877 -0.3033565 -0.12144727
000060 2e 33 68 be 97 f2 96 be b2 e8 87 be 8e f1 38 bd
       -0.22675774 -0.29481956 -0.2654472 -0.04515224
000070 bb 3c 84 be 75 61 42 be b4 80 07 be 60 df 69 be
       -0.25827584 -0.1898249 -0.1323269 -0.22839117
000080 e9 63 b5 be 28 41 67 be c8 c4 6a be d5 aa 00 be
       -0.35427788 -0.22583449 -0.22926629 -0.12565167
000090 c1 93 2d be a9 f4 82 be ef 75 25 be 3a b2 57 be
       -0.16950895 -0.25577286 -0.1615827 -0.21064082
0000a0 8e f9 bd bd cf 6e 59 bd 11 e4 77 be 4b 3e 27 be
       -0.092761144 -0.05308419 -0.24208094 -0.16332357
0000b0 2a ec a8 be 7d cd e5 bb f2 32 70 be cb d9 c7 be
       -0.3299268 -0.0070130215 -0.23456934 -0.3903335
0000c0 6a 13 5b be 90 26 9b be 6d c0 30 bd d5 e5 71 be
       -0.21394125 -0.30302858 -0.04315226 -0.2362283
0000d0 18 00 25 be 17 82 46 be 31 e8 15 3c 72 78 17 be
       -0.16113317 -0.19385563 0.009149597 -0.1479204
0000e0 14 a7 17 be 0c 80 37 be 9b 0d ee bc 78 b2 55 be
       -0.14809829 -0.1791994 -0.029059222 -0.20868862
0000f0 f5 cc a1 be 93 50 93 be 7d 28 4c be e1 47 9a be
       -0.31601682 -0.2877241 -0.1993732 -0.30132964

encoder.2.1.running_mean f4 [64]
000000 4b 21 a2 be 93 1f 7a be 3d 33 97 be de 25 cd be
       -0.31666026 -0.24426107 -0.2953128 -0.40067953
000010 ce a8 86 bd ba 0d 6c be 8f 20 9d be 7a 99 d6 be
       -0.06575166 -0.23052111 -0.30688903 -0.41913968
000020 ec c8 86 be ef 4a b4 be 2a 68 82 bd a8 50 9e be
       -0.26325166 -0.3521342 -0.06367524 -0.3092091
000030 fd 65 07 bf dc 65 77 be f0 de a2 be e9 68 e8 be
       -0.52889997 -0.2415995 -0.31810713 -0.4539254
000040 4d 1b 00 00 a0 9c 58 3e 2b 52 b3 be fd 03 8b be
       9.794e-42 0.21153498 -0.35023627 -0.2715148
000050 fc fc 43 be 9c 54 c6 be 42 e1 05 bf bc 06 c2 be
       -0.19139475 -0.38736427 -0.5229684 -0.37895763
000060 e7 30 2a bf bd 6a b3 be 5b 6e 8c be 72 7e d6 be
       -0.6648087 -0.35042372 -0.27427945 -0.41893345
000070 08 39 de be c6 a5 d8 be a1 d0 a5 be 55 81 93 be
       -0.43402886 -0.42313975 -0.32385734 -0.2880961
000080 44 25 9c be 50 cb d9 be 4f 9f b9 be 42 31 40 be
       -0.3049718 -0.42537928 -0.36254355 -0.1876879
000090 ec 5d cd be f2 33 f9 be 23 4d 36 be 72 d4 3f be
       -0.4011072 -0.48672444 -0.17802863 -0.18733385
0000a0 29 fd a6 be 40 9c ae be a0 08 bd be 50 b1 8f be
       -0.3261502 -0.34103584 -0.36920643 -0.28064966
0000b0 37 a0 01 bf 21 cc ec be 4e 34 b5 be ed 76 4f 3b
       -0.50635093 -0.46249488 -0.35391468 0.0031656579
0000c0 97 fc 18 be 24 4b dc be a5 13 90 be 67 95 ad be
       -0.14940105 -0.43026078 -0.28139988 -0.33903047
0000d0 cc 00 2e be 89 f7 97 be 73 df 1b bf 5e ab 8c be
       -0.16992491 -0.29681042 -0.6088783 -0.27474493
0000e0 11 06 63 3e ac f5 99 bc 93 33 fd be c7 0a cb be
       0.22170283 -0.018793903 -0.4945341 -0.3965666
0000f0 a4 a3 a5 be a5 3f ad be 1d 8b c5 be c3 ec 17 bf
       -0.3235141 -0.3383762 -0.38582698 -0.59345645

encoder.2.1.running_var f4 [64]
000000 ea 19 95 3d d4 de 21 3d b0 f1 42 3d 16 28 8a 3d
       0.07280333 0.039519146 0.047593772 0.06745927
000010 3a f5 84 3d 25 80 6b 3d 99 28 59 3d 87 c7 ae 3d
       0.06492086 0.057495255 0.053017233 0.085341506
000020 83 67 97 3d 5e 40 70 3d 0d 33 79 3d 43 91 c7 3d
       0.0739279 0.058655135 0.0608397 0.09744503
000030 c0 38 e2 3d 9e f1 85 3d aa 81 c3 3d ca 8f 8a 3d
       0.110459805 0.065402254 0.09546216 0.06765707
000040 04 00 00 00 b8 e6 48 3d 8c e3 81 3d 58 5d 6e 3d
       6e-45 0.049048156 0.06342229 0.05819449
000050 97 4e 7c 3d 30 8f b1 3d 79 87 dd 3d 25 21 d4 3d
       0.061598387 0.08669889 0.10816855 0.10357884
000060 4a ec fb 3d 29 45 75 3d d4 36 a9 3d 07 c0 a4 3d
       0.12300928 0.05988041 0.08262411 0.08044439
000070 20 32 f0 3d 44 22 cd 3d 2c 10 6e 3d 22 87 a9 3d
       0.117283106 0.10016301 0.05812089 0.08277728
000080 25 d0 86 3d 47 1f 8f 3d 79 4a 8a 3d c8 33 99 3d
       0.06582669 0.069883876 0.06752486 0.074805796
000090 bb f8 8e 3d 8f 09 ac 3d 29 ab 60 3d f2 b9 8d 3d
       0.06981035 0.08400261 0.05485073 0.06920232
0000a0 d7 5b a4 3d a2 91 b7 3d 2a 45 44 3d 11 89 87 3d
       0.080253296 0.08963324 0.047917522 0.0661794
0000b0 09 72 b7 3d 3a 28 86 3d de 52 8f 3d d2 b5 82 3d
       0.08957297 0.06550641 0.069982275 0.06382336
0000c0 8f 73 a0 3d 9b 1b 78 3d 01 28 78 3d 4c 70 77 3d
       0.07834541 0.0605732 0.060585026 0.06040983
0000d0 c7 67 69 3d 15 4f 9c 3d 92 66 f2 3d f5 2a 9c 3d
       0.056983735 0.07632271 0.1183597 0.07625381
0000e0 fd 8a 8c 3d 11 14 45 3d 19 cb 8a 3d 50 5e e5 3d
       0.068624474 0.04811484 0.06777019 0.11199629
0000f0 48 34 97 3d e4 02 64 3d 71 c9 94 3d 03 51 ee 3d
       0.07383019 0.05566682 0.072649844 0.116365455
